Image/Notebook/binary_classifier 2.pth (torch, 13996 bytes, 5 tensors)

fc1.weight f4 [64, 10]
00000000: de91 963e fcb1 42bc a53d 283e db73 ca3e
00000010: 2839 84bc f31a 153e 4bd4 583e 6164 b43e
00000020: a3be a53d 6851 b63e bd38 563e 0aa3 043e
00000030: 2c5f 763e cbf9 f03d 6e3a b63e 0b8c 3b3d
00000040: e616 8f3e 4d23 843e 1910 ae3e ccfa 3f3e
00000050: f64c 60bd 3162 01be e93e 493d dbf6 b0be
00000060: dea5 ccbd 3013 d7bc 0f53 dcbe 1ab4 54bd
00000070: 4927 933c 171f fdbe c9bc 0539 5d44 1dbe
00000080: 094f ea3e 8968 bbbd 0f03 893e 1c30 3a3d
00000090: 2ac8 183e fa22 dd3e af6b cc3e 4dc6 973e
000000a0: 859a a3bd db5c a7ba 9629 bfbd 2218 8fbe
000000b0: e031 16be 4db6 a23d 1a4b 763d 51fa 3cbe
000000c0: 3632 c3be 7b8b b4be cfbf 81be 1afb 903d
000000d0: 92ca b5be 0544 10be 382f 94bd d515 ffbe
000000e0: 0275 893c 287d b1be 81a9 9ebe cb01 59be
000000f0: 434f c03e fd96 a03d d92e 3bbd 18a6 2abe
00000100: e18b 27be e8f4 c23e 0801 c13e 92fe e23d
00000110: c18a f73d 074b a13e 7938 203e 5704 c4bd
00000120: 7316 8d3e 1e1f 943e e7be ea3e 32cf 3e3e
00000130: c75a 933c 6026 81bd ee52 0dbe 9801 f33d
00000140: 747c 90be a917 babe c81a 16be 57d5 dcbc
00000150: 6a0e bf3d 8647 f3be 60a4 b13d bc4c 93be
00000160: 4f98 47be 87d7 cb3d 6436 ad3e 3bce ca3e
00000170: 87a7 cc3e 7704 6cbe b52b e73c 21e6 eabd
00000180: a82e f4bd 40bf 4c3e b0d0 913e d5da 093e
00000190: 484f 5c3d e16a 21be fede c0bd 7a75 eabe
000001a0: f575 263e a8a0 60be a482 edbc 1efe 37be
000001b0: cae3 8cbe dcc5 77be 8b60 e23e b2d7 c23e
000001c0: a891 5ebe de78 113e 0b44 b63d 73d8 d93e
000001d0: f343 b53e 8a2c b7bd 1a92 21bc 6433 8a3e
000001e0: 66a2 b3be aed4 36be 7039 2dbd 2fae db3d
000001f0: f0fa a0be 4813 adbe b5e7 e5be 1964 443e
00000200: 94e7 99be bc9f 90bd dbe3 263e 4727 b63e
00000210: 447b bfbd e279 973e ddea 973e 02d6 bb3e
00000220: 65a9 5bbe 5c22 cc3e 3167 113d 065e d03e
00000230: bc38 88be e810 a13c 86b6 32be 3f5f a1be
00000240: 618f 6dbe 9d4e b0bc 9197 f53d 331b a7be
00000250: cc68 58be 25a0 8bbe 3089 cc3d bf04 583e
00000260: 7b29 abbc 589a 453e 59e0 2c3e a85b cd3e
00000270: e2d9 253e 5ff1 b93e 17af 9e3d 149c 863e
00000280: 9646 093e 3cef 393b 6a92 d3bd adcf dc3e
00000290: e07f c43e 7f92 b53c b801 26be cf82 8c3e
000002a0: 46ac 6ebe 4ae6 973e ac54 9b3e 4af2 9d3e
000002b0: 1f56 373d 1aec 6d3e 2ef4 f0be d48d 43be
000002c0: 2dbf 65be 4004 8cbe f442 a9bd 33ad 943e
000002d0: f681 00be 896f b23e 887b 29be 553f a53c
000002e0: 72e9 a83e df3f ac3e 0fd7 db3e 934c 013e
000002f0: 5018 483e 2c58 eabd c4f3 06bc 4134 c7bd
00000300: 0977 39be 6edf b1be aa5c 66be dc1c 5dbd
00000310: b083 13be 495c a5be eb45 a4be 937a d8bd
00000320: c493 423e 8ad1 413e 3e62 84bd 6ec7 133e
00000330: 4efd 96be fd02 38bc 7491 c23d 1c94 5b3e
00000340: 8346 333e 8737 b73e d92b 21bd 5321 a3be
00000350: 1a71 e6be 495f abbe 172d ff3c 0629 453c
00000360: 04e7 d8be 7c68 d53e e00e afbe 0117 11bd
00000370: 7071 dfbd 245c 943d 50ab 253e afd7 1c3e
00000380: c357 33be 8f1e f23e c1da 593e 467c 8e3e
00000390: 591b b43e 4572 9b3e acac f5be d103 4cbe
000003a0: d824 7c3e 6a73 b4bd eab7 11bd 93ae c2be
000003b0: d720 773c bc06 473c 6846 58be 7530 92bd
000003c0: 27c3 e73e 5a78 e43c 6af4 1f3d 5f3b 023e
000003d0: da59 413e 974c 30be 15cc 19be 5037 963d
000003e0: 8808 3c3d 9f35 523e def4 86bd bff7 a0bd
000003f0: 3cee 103e b88e b83d 4bae de3e c758 8b3e
0.29408163 -0.011883255 0.16429766 0.39541516 -0.016140535 0.14561062 0.21174733 0.35232833
0.08093002 0.35608983 0.20920081 0.1295282 0.24059743 0.11766394 0.35591453 0.045787852
0.27947158 0.25808182 0.33996657 0.18748015 -0.054760896 -0.12635113 0.04913226 -0.34563336
-0.09992574 -0.026254267 -0.4303212 -0.05192957 0.017963069 -0.49437782 0.00012754196 -0.1535811
0.45763424 -0.09150798 0.26760146 0.045456037 0.14920107 0.43190747 0.39925906 0.2964348
-0.07988457 -0.0012768762 -0.09334104 -0.279481 -0.14667463 0.07944927 0.060130216 -0.18454863
-0.38124245 -0.35262665 -0.2534165 0.07079144 -0.3550611 -0.14088447 -0.07235569 -0.49821344
0.016779426 -0.346658 -0.30988696 -0.2119209 0.37560472 0.07841299 -0.045698974 -0.16664922
-0.16361953 0.38077474 0.376961 0.11083712 0.12087012 0.31502554 0.15646543 -0.0957114
0.2755619 0.2892999 0.45848772 0.18633726 0.017987622 -0.063061476 -0.13801166 0.11865538
-0.2821995 -0.36346176 -0.14658654 -0.026957197 0.09328921 -0.47515506 0.0867393 -0.2876948
-0.19491695 0.09953218 0.3383056 0.39610466 0.39971563 -0.23048578 0.028219083 -0.11469675
-0.119229615 0.19994831 0.28479528 0.13462384 0.053786546 -0.15763427 -0.094175324 -0.45792753
0.16255935 -0.21936285 -0.028992958 -0.17968032 -0.2751754 -0.24196571 0.4421428 0.38055187
-0.21735251 0.14206263 0.08899697 0.4254795 0.35403404 -0.08944042 -0.0098614935 0.26992333
-0.35084838 -0.17854568 -0.042291105 0.10726582 -0.3144145 -0.33803773 -0.4490334 0.19178809
-0.30059493 -0.07061717 0.16297857 0.3557684 -0.09349683 0.29585177 0.29671374 0.36686713
-0.21451338 0.39869964 0.0354988 0.40696734 -0.26605785 0.019661382 -0.1745244 -0.3151798
-0.23199226 -0.02152186 0.119917996 -0.3263794 -0.21133727 -0.27270618 0.09987104 0.2109556
-0.020893803 0.19297159 0.16882457 0.4010899 0.16196397 0.36316964 0.077482395 0.26290953
0.13405833 0.0028371355 -0.10330661 0.43127194 0.3837881 0.022164581 -0.16211593 0.2744355
-0.23307905 0.29667884 0.30338037 0.30848914 0.044759866 0.23234597 -0.47061294 -0.19097072
-0.22436209 -0.27346992 -0.082647234 0.2903839 -0.12549576 0.3485072 -0.1655103 0.0201718
0.32990605 0.3364248 0.42937514 0.12626867 0.19540524 -0.11442599 -0.008236829 -0.097267635
-0.18111815 -0.34740776 -0.22496286 -0.0539826 -0.14405704 -0.3229697 -0.32084593 -0.10570254
0.1900168 0.18927589 -0.06464051 0.14431545 -0.2949013 -0.011231181 0.09500399 0.21443218
0.17507367 0.35784552 -0.039348457 -0.31861362 -0.45008165 -0.33471134 0.03114943 0.0120337065
-0.4236375 0.41681278 -0.34191036 -0.03542233 -0.10910308 0.07244137 0.16178632 0.15316652
-0.17513947 0.4728894 0.21274854 0.27829188 0.35177115 0.30360618 -0.479833 -0.19923331
0.2462343 -0.08811076 -0.035575785 -0.38023815 0.015083513 0.012147602 -0.21120608 -0.07138149
0.45266077 0.02788942 0.03905145 0.12717961 0.18881932 -0.17216717 -0.15019257 0.07334769
0.045906574 0.20528267 -0.065896735 -0.07859754 0.14153379 0.090115964 0.4349235 0.2721617

fc1.bias f4 [64]
00000000: 731e af3e 22db 943e be28 de3d 57cc 8e3e
00000010: d9a8 873e c6a0 653e 316b f4bd ed8c 8b3e
00000020: 8336 c3bc 06aa 883e c72c bbbd 31e5 193e
00000030: da53 18be 57c4 503e 7682 fc3d ddc6 cf3e
00000040: eab0 973e 09f1 8a3d b62b f8bd 0150 953e
00000050: 426c 40be 3061 193d 2e46 bd3e 9ee7 3a3e
00000060: dd98 8a3e a3c0 473e b75e 0e3f 266e 843e
00000070: 971d 0cbe c76f 703e bd59 e5bd e82c 8c3e
00000080: b4c4 72bd 2e4a debd cbb2 6c3e b27c aa3d
00000090: a951 13be f6fb 0bbd 7fb3 d4bd 54b5 de3e
000000a0: ed83 513e a7fd 603c ac35 3d3e afa2 f73d
000000b0: 693c f5bd 5f99 983e 793a 673e 7bea 3f3e
000000c0: e0fc 583e 2f8c c13e 3029 b73d ad71 ebbd
000000d0: 58c1 be3e 64ac a7bc ef08 8cbd 3e0f 213e
000000e0: 5222 99bd fe68 0e3e 32e6 b43e 205e b6bd
000000f0: f6b0 893e e0d8 603e 7ce2 84be d6d9 ac3d
0.34202918 0.29073435 0.10847615 0.27890274 0.26496008 0.22424611 -0.11934508 0.27255955
-0.023829704 0.26692218 -0.091394 0.15028836 -0.14875737 0.20387398 0.12329571 0.40581408
0.29627162 0.06784255 -0.12117712 0.291626 -0.18791297 0.0374462 0.36967605 0.18252417
0.2706975 0.19507079 0.55613273 0.25865287 -0.13683163 0.2348014 -0.11198757 0.2737801
-0.059269622 -0.108539924 0.23115079 0.08324565 -0.1438662 -0.034175836 -0.10385799 0.43497717
0.20460482 0.01373235 0.18477505 0.12091576 -0.11974413 0.29804513 0.225809 0.18741791
0.21190214 0.37802264 0.08943403 -0.11496291 0.37256885 -0.020467944 -0.068376414 0.1572847
-0.07477249 0.13907239 0.35331875 -0.08904672 0.26892823 0.21957731 -0.25954044 0.084399864

fc2.weight f4 [32, 64]
00000000: 4fe5 d83d fcf0 973e dfaa 7ebe e190 393e
00000010: 20da f3bb ebab 9abe 7545 603e 5d55 b83d
00000020: ab1d 2bbe ef2c f93d 30a4 97be 7252 933e
00000030: 4269 3bbe bb87 3a3e 4012 56be 1ede 143e
00000040: e6c3 423d 236f beba a69b 893e 54a8 053c
00000050: 853e 0f3e d079 06bc 6285 b63d c8a7 853c
00000060: dba3 633e 2db8 9b3e c214 78be b747 80be
00000070: 94f8 c0bd f11f 483e 3214 92bd 4fe5 a73d
00000080: 6b81 92be 20b5 03be 6326 7c3e f739 3e3d
00000090: efc4 1dbe f8e2 82be 3537 493e 466c a13e
000000a0: ecc9 993e a67f 2fbe 3e40 6fbe 54b1 ddbd
000000b0: b7e6 06be b3c3 ba3d 229e 623e b3ad 8c3e
000000c0: 59f7 903e e38a 7fbc 385b c2bd 022b 0fbe
000000d0: c1c7 eabd c71e 523e fb5b e73c 3e01 e4bd
000000e0: 7bb6 343e a94d 8e3d ef22 18bd ca0f 0a3e
000000f0: b044 863c 2fac 44be 8ae3 12be c2d3 86be
00000100: a363 4a3e 1384 433e f70b 21be 1b09 9f3e
00000110: 221b cabc f959 56be bada 4e3e fd08 383d
00000120: bbb6 433d 01ff 3b3e 53f2 0abe 4dd3 123e
00000130: 4ca8 64be 234c 6e3e 7375 50be b92d 343e
00000140: bdb7 413e 5de4 573e 6eb1 5a3e a466 25be
00000150: 4473 cd3c dc41 16be ec55 8c3e 9ca3 183d
00000160: fc51 db3d 76f5 323e e770 45be df06 4dbe
00000170: f515 abbd d03f 5c3d 5456 5ebd 0180 cd3d
00000180: 17fc 9abe 1cb3 9ebd 330b 033e e08f 123e
00000190: eb29 b5bc 0060 4fbe 860f 8e3e d88e 243e
000001a0: 3a90 cb3e 5276 a8be 4c91 7ebe 05eb 38be
000001b0: de95 f0bc 2b12 9b3e 4926 133e 46c9 a13e
000001c0: dc30 743e f601 5cbe c780 29be 51ba 96bd
000001d0: d80c dcbd 33fd 5e3e a5ee 553d b130 53be
000001e0: 9390 f23c 2714 b2bd fa30 01be ff01 863e
000001f0: 0c7d eb3c e70f 8bbe 22b2 a0bd 3ca4 0fbe
00000200: d4c9 863e 0504 b93e 1224 82be 9286 673e
00000210: 939c 9fbc b17c b0bd b341 713e e78d 463e
00000220: b019 10be 3db5 8e3e 5994 89be 8cbd 823e
00000230: 15cf 74be db4c 9b3e ef48 70be d701 3b3e
00000240: f133 383e 65a8 9a3d d5ef 573e a005 45be
00000250: 612a 813d 3ac8 3cbd 8c43 913e da2d 44be
00000260: 7f00 28bc 4f1e c93e cfda 30be 8d3f 5dbe
00000270: 0e0b 32be c279 3e3e 11a0 3cbd 1cd7 fa3d
00000280: 57bc 47be 5ab5 51be 90e2 603e 980e 483e
00000290: e9b9 1abd 9f64 88be 3e26 543e a50b 573e
000002a0: 8c2c c93e 0956 5ebe f83e eabd cb7d 8abe
000002b0: 130b 32bd bd55 033e f7b6 483e 156d 123e
000002c0: fd64 153e 07e4 38be d15d 93be 442c 38bd
000002d0: cbb3 17be 9f63 393e a3da fbbd 601d ad3b
000002e0: 2dc2 683e 930f e4bd a283 b0bd 3686 303e
000002f0: a840 f7bd 30cf aabe e170 80bd 2339 b4be
00000300: 21f4 4a3d 255f 4b3e 644a 71be bef5 7f3e
00000310: bb2c 5b3b a92d 57bd d5bd 4b3e 0d4b f33d
00000320: 6b52 84bd 2694 a13d e83d 58be 2aab 343e
00000330: b7c4 2abe 8833 4c3e ee68 49be d877 423e
00000340: 251b e33d 05af 313e f739 423e 6e5d dabd
00000350: bf49 4a3e 3e6b 4dbe 82f3 373d 3e29 c93c
00000360: a853 393d d5b8 3c3e c61e 62bd 85d4 afbd
00000370: 56c3 91bc b239 833c 42b2 923d 54bf 1e3e
00000380: a236 5cbe d78b 41be 4398 cd3d 4ad1 1d3d
00000390: 4d2b c4bd 7fae 45be b886 183e 1e25 843e
000003a0: b340 a63e 5333 42be 6249 07be 36d3 16be
000003b0: 04e9 12bd bf17 2d3e 40b0 313e 2bdd 133e
000003c0: 5349 de3d 8dac 43be 8cee 66be 3ac3 b6bd
000003d0: 92ae 3ebe f986 483e 4a31 60bd 06d6 66bd
000003e0: 5641 fb3d b03c adbd b4db 42be 1b06 1c3e
000003f0: c1a2 0e3d 8fb1 25be 8819 06bd fbf7 76bd
0.10590612 0.29676044 -0.2486987 0.18121673 -0.007441774 -0.30209288 0.21901496 0.09000657
-0.16710536 0.121667735 -0.29617453 0.28773838 -0.18301871 0.1821584 -0.209054 0.14537856
0.047550105 -0.0014528971 0.26876563 0.008157808 0.13988693 -0.008207753 0.089121595 0.016315356
0.22230475 0.30413952 -0.24226668 -0.25054714 -0.094224125 0.19543435 -0.07132758 0.08198034
-0.28614363 -0.12862062 0.24624018 0.046442 -0.15407155 -0.25563788 0.19649966 0.3152792
0.30036867 -0.17138538 -0.2336435 -0.10824838 -0.13173948 0.09119358 0.22130635 0.27476272
0.2831371 -0.015597078 -0.09490055 -0.1398125 -0.11463881 0.20519553 0.028242102 -0.111330494
0.17647736 0.06948406 -0.03714269 0.13482586 0.016390175 -0.19206308 -0.14344612 -0.26333433
0.19764571 0.19093351 -0.1572722 0.31061634 -0.024671141 -0.2093276 0.20200625 0.044930447
0.047781687 0.18358995 -0.13569002 0.14338417 -0.22329825 0.23271231 -0.20357303 0.17595567
0.18917747 0.21083207 0.21356747 -0.16152436 0.025079377 -0.14673561 0.27409303 0.037265405
0.10708997 0.17476448 -0.1928135 -0.20022152 -0.08353797 0.053771794 -0.054281548 0.100341804
-0.30270454 -0.07749006 0.12797241 0.14312696 -0.022114715 -0.20251465 0.27746218 0.16070116
0.39758474 -0.3290277 -0.24860114 -0.18058403 -0.029368337 0.302873 0.14370073 0.31598872
0.23846763 -0.21485123 -0.16553031 -0.07359756 -0.10744637 0.21776275 0.052229542 -0.20624043
0.029609954 -0.0869525 -0.1261634 0.26173398 0.02874615 -0.2716057 -0.07846476 -0.14027494
0.26325858 0.3613588 -0.25418144 0.22609928 -0.01948384 -0.08617533 0.23560219 0.19390069
-0.14072299 0.2787265 -0.26870993 0.25535238 -0.2390712 0.30332074 -0.23465322 0.1826242
0.17988564 0.0755165 0.21087582 -0.19240427 0.06306911 -0.04608939 0.28371847 -0.19158116
-0.0102540245 0.39280936 -0.17270969 -0.21606274 -0.1738703 0.18601134 -0.04605109 0.1224806
-0.1950544 -0.20479336 0.21961427 0.19536817 -0.037774954 -0.26639268 0.20717713 0.21000536
0.392918 -0.21712507 -0.114377916 -0.27049097 -0.043467592 0.12825675 0.19601046 0.14299424
0.14589305 -0.18055736 -0.28782514 -0.04496409 -0.1481468 0.18104409 -0.12297561 0.005283043
0.22730322 -0.11135783 -0.08618857 0.17238697 -0.12072879 -0.33361197 -0.0627153 -0.35199842
0.049549226 0.19860514 -0.23563534 0.24996087 0.003344341 -0.05253378 0.19896634 0.11879549
-0.064610325 0.07889585 -0.21117365 0.17643419 -0.16676603 0.19941533 -0.19668934 0.1899103
0.11089162 0.17351921 0.18967424 -0.106623515 0.19754694 -0.20060441 0.04490996 0.024555799
0.045245796 0.18429883 -0.05520513 -0.08585457 -0.017793339 0.016018722 0.07162906 0.15502673
-0.21505216 -0.18901001 0.10038807 0.03852967 -0.095785715 -0.19304846 0.14895141 0.25809568
0.32471237 -0.18964891 -0.13211587 -0.14729008 -0.035866752 0.1690359 0.1735239 0.14439838
0.10853829 -0.19108792 -0.22551936 -0.08923955 -0.18621281 0.19582738 -0.054734506 -0.056356452
0.12268321 -0.08458841 -0.19029123 0.15236704 0.034823183 -0.16181014 -0.032739192 -0.060295086

fc2.bias f4 [32]
00000000: ba39 00bc 898e 7ebd 5618 b63d 1ea4 633c
00000010: 6821 263e bc7e d53b 3a1b 1d3e 1e4b 393e
00000020: aee2 fc3d 609e bc3d 09ff 983d 90f7 6a3e
00000030: 3a30 093d 63ff 313e 83e6 343d 42f3 e3bd
00000040: cbac ac3d 86c1 dc3d ce5e e73c 0bdd 6f3d
00000050: 1514 e43d 514c d33d 1849 36bd 713f 383e
00000060: 154d 363e 3d9a 3f3e fd5f 8ebb 19bf 0b3e
00000070: 418e 653e 1973 5abc 6c85 ca3d 36ca 20bd
-0.007826263 -0.06214765 0.088913605 0.013894109 0.16223681 0.006515352 0.15342417 0.18095061
0.12347923 0.09209895 0.07470519 0.22946 0.033493258 0.17382579 0.044165146 -0.11130382
0.08431395 0.10779099 0.028243449 0.058560412 0.11136643 0.103172906 -0.0445033 0.17992951
0.17802842 0.18711181 -0.004344939 0.13647117 0.22417547 -0.0133331055 0.098887295 -0.039255343

fc3.weight f4 [1, 32]
00000000: 01e2 c33e 2123 143f 8175 a63e ddf7 003f
00000010: 1257 b43e 4f50 cc3e 3ba6 a9be c588 b83e
00000020: 687b 063f e5e5 bbbe 3f12 e13e bbff b6be
00000030: cc98 2f3f f508 c8be f448 c03e 50ca 813c
00000040: 2834 b93e 1130 44bf c09f debe 63c1 e03e
00000050: 9d18 023f aeb6 d43e eb5b 093f 36da ad3e
00000060: 342e e8be eecd c6be 2f0b 0abf a877 cebe
00000070: 2120 c9be 7328 b93e bdf8 113f 1375 d63e
0.38258365 0.578661 0.32511523 0.5037821 0.3522268 0.3990502 -0.33134636 0.36041847
0.52532053 -0.36698833 0.43959233 -0.35741982 0.68592525 -0.39069334 0.3755566 0.01584354
0.36172605 -0.76635844 -0.43481255 0.43897542 0.50818807 0.41545624 0.5365588 0.33955544
-0.4534775 -0.38828987 -0.53923315 -0.40325665 -0.39282325 0.36163673 0.5702017 0.41886196
