Image/Notebook/Model/autoencoder1_model 2.pth (torch, 5352 bytes, 3 tensors)

weight f4 [16, 1, 3, 3]
0	0x3d0d53bc	0.034503683
1	0x3dccc977	0.09999364
2	0x3ea43027	0.32067987
3	0xbd8dcd1e	-0.069238886
4	0xbe21e8ac	-0.15811414
5	0xbe5056f9	-0.20345677
6	0x3e5e12e0	0.21686888
7	0x3e145fbb	0.14489643
8	0x3eae519e	0.34046644
9	0xbe8a774f	-0.2704415
10	0xbe49246c	-0.196428
11	0xbdd1e407	-0.10248571
12	0x3d63e33b	0.055636626
13	0xbe706ca2	-0.2347894
14	0xbe9718e6	-0.29511184
15	0x3bb788c5	0.005601021
16	0xbe5f4f0e	-0.218075
17	0xbd5b3ff0	-0.053527772
18	0xbd1f28cb	-0.038857263
19	0x3db38731	0.0876602
20	0x3d971aee	0.07378183
21	0x3d32b4aa	0.043629326
22	0xbd21d162	-0.039506324
23	0x3f04d157	0.5188193
24	0x3d0a4803	0.033760082
25	0x3e938965	0.2881576
26	0x3ecb554a	0.39713508
27	0x3dec15bf	0.11527585
28	0x3e69536d	0.2278573
29	0x3e6d3517	0.23164783
30	0x3e7b740f	0.24555992
31	0xbd9170b9	-0.07101578
32	0xbe697c2c	-0.22801274
33	0x3e98a7c3	0.29815492
34	0x3eaafc7a	0.3339575
35	0xbe232466	-0.15931854
36	0x3ee56c7a	0.44809324
37	0xbd957a2e	-0.072986946
38	0x3e9c3a29	0.30513123
39	0x3e041d9e	0.12901923
40	0xbf098da7	-0.5373177
41	0xbe8b943d	-0.27261534
42	0x3e501f1b	0.20324366
43	0x3ea3eeff	0.32018277
44	0x3e8f2e90	0.27965212
45	0xbe677aad	-0.22605391
46	0x3e993efd	0.2993087
47	0x3e0de2c6	0.13856038
48	0x3da64dc8	0.08120304
49	0x3de5dbc7	0.1122356
50	0xbe782e8a	-0.24236503
51	0x3e935388	0.28774667
52	0x3dac34aa	0.084084824
53	0x3bac3ee3	0.00525652
54	0xbc4709fd	-0.0121483775
55	0x3e430eea	0.19048658
56	0xbe82cf95	-0.25548998
57	0x3e9f29ac	0.3108648
58	0x3e36b01b	0.17840616
59	0xbb91db3d	-0.004451184
60	0xbdc8664e	-0.09785138
61	0x3e194cbd	0.1497068
62	0x3b8f027b	0.0043643094
63	0x3edb0a3e	0.42781252
64	0x3ea92225	0.33033863
65	0xbeabefbb	-0.33581337
66	0x3dea2cd3	0.11434331
67	0x3e56eed7	0.20989548
68	0x3e267ad4	0.16257793
69	0xbee6d6b2	-0.45085675
70	0x3cbc1e94	0.0229638
71	0xbd9b87d2	-0.07594265
72	0xbe143f1b	-0.14477198
73	0xbebd462f	-0.36967608
74	0x3e64b4a6	0.22334537
75	0x3e8611e3	0.2618552
76	0xbe9e45f6	-0.3091275
77	0x3e1bf76a	0.152311
78	0xbda632ba	-0.08115144
79	0xbd4b831b	-0.04968558
80	0x3e83166b	0.2560304
81	0x3e78f63a	0.24312678
82	0x3eaacb07	0.33358023
83	0x3db32187	0.08746629
84	0xbe140e8f	-0.14458679
85	0xbe950e95	-0.29112688
86	0x3e7fd768	0.24984515
87	0xbe23c7d9	-0.15994205
88	0x3e11a7e5	0.14224203
89	0x3e0777a0	0.13229227
90	0x3ddf7e04	0.109127074
91	0xbe874f48	-0.26427674
92	0xbdd43764	-0.103621274
93	0x3ece4b50	0.40291834
94	0x3ecd46d8	0.40093112
95	0xbbff5ec5	-0.00779328
96	0x3d8214ab	0.06351598
97	0xbdc3ee91	-0.09566987
98	0x3e186938	0.14883888
99	0xbe6a920c	-0.22907275
100	0x3e8c0eb5	0.2735497
101	0x3e2e3bb6	0.17014965
102	0x3e91ca6a	0.28474742
103	0x3e2911ce	0.16510698
104	0xbec4e2cb	-0.3845428
105	0xbe1743ac	-0.14771909
106	0x3e4d8bf3	0.20072918
107	0x3e0a2e65	0.1349426
108	0x3e9729bf	0.29524037
109	0x3d8848c3	0.06654503
110	0x3de81320	0.11331773
111	0x3d14dcc8	0.036343366
112	0x3e669559	0.22517909
113	0xbe6ce6a9	-0.23134865
114	0x3ea7d74f	0.32781455
115	0xbe854b43	-0.26033983
116	0x3dcb989d	0.09941218
117	0x3ed421d6	0.41432065
118	0xbca83f8e	-0.020538118
119	0x3d84b105	0.06479076
120	0x3d2f7bad	0.042842556
121	0xbeb1966a	-0.3468507
122	0x3e2e17b9	0.17001237
123	0xbdcd78c0	-0.10032797
124	0xbd910cc1	-0.07082511
125	0xbdadd2db	-0.08487483
126	0xbe3a9c74	-0.18223745
127	0xb87eaaf2	-6.0717524e-05
128	0xbda02595	-0.07819668
129	0xbecb71c3	-0.3973523
130	0x3d35f9de	0.044427745
131	0xbeb84fef	-0.35998484
132	0x3c345b19	0.0110080475
133	0xbdc6a6ba	-0.09699769
134	0x3e6b3fa9	0.22973503
135	0x3e113852	0.1418164
136	0x3dbba1c7	0.09161716
137	0xbd3519ac	-0.044213936
138	0x3ec545fa	0.3852995
139	0x3ead1f26	0.33812827
140	0x3eb5d688	0.35515237
141	0xbdc6f937	-0.09715503
142	0xbe756827	-0.23965512
143	0x3dbb8462	0.091561094

bias f4 [16]
0	0x3d02c828	0.031929165
1	0xbc25c14a	-0.0101168845
2	0xbbdb1cdf	-0.0066867913
3	0xbdb2076c	-0.08692822
4	0x3e8a64b6	0.2702996
5	0xb98beee5	-0.00026690136
6	0x3c68a291	0.014198915
7	0x3dc91446	0.0981832
8	0x3e855d0e	0.26047558
9	0x3d376c46	0.044780992
10	0x3ccaa2bb	0.024735799
11	0x3dd4f861	0.10398937
12	0x3eb7bfc2	0.35888487
13	0x3ec9c013	0.39404353
14	0x3e011adf	0.12607907
15	0x3e65f931	0.2245834

weight f4 [16, 1, 3, 3]
0	0x3dfea3a7	0.12433558
1	0x3e9d6166	0.30738372
2	0xbe871a4d	-0.26387253
3	0x3e39ef6c	0.18157738
4	0x3e191d7f	0.14952658
5	0xbe5c02db	-0.21485464
6	0x3eb354d1	0.35025647
7	0xbda235be	-0.07920407
8	0x3ea9cc7a	0.33163816
9	0x3e7602a0	0.24024439
10	0x3daf5d20	0.08562684
11	0xbe11d764	-0.14242321
12	0xbe3e02b7	-0.18555723
13	0x3e1bd477	0.15217768
14	0x3e6b43c6	0.22975072
15	0x3ddae0e4	0.10687426
16	0x3cefb60c	0.029261611
17	0xbe87d099	-0.26526335
18	0xbe5db0e8	-0.21649516
19	0xbd1db8d6	-0.03850635
20	0xbd08b7a3	-0.033378255
21	0xbe6737f4	-0.22579938
22	0x3ea1ac4a	0.3157676
23	0x3f14728f	0.579873
24	0x3d282ec1	0.041060213
25	0x3efee329	0.49782684
26	0x3e94a9fc	0.29035938
27	0xbd7bd1bb	-0.06147931
28	0xbd7e6ae3	-0.062113654
29	0xbe8ef319	-0.27919844
30	0x3e823155	0.25428262
31	0xbbb1511e	-0.0054112813
32	0x3e1deaaf	0.15421556
33	0xbe35b90a	-0.17746368
34	0x3e508ac9	0.20365442
35	0x3e917f8e	0.2841763
36	0x3eb9b589	0.36271313
37	0xbece7166	-0.4032089
38	0x3eaf013f	0.34180638
39	0xbeb95a5b	-0.36201748
40	0xbed1e5fa	-0.4099577
41	0xbe585acc	-0.21128386
42	0x3d87ffe7	0.066406064
43	0x3e6bfa50	0.23044705
44	0xbdc94a2c	-0.098286
45	0x3c887e98	0.016661927
46	0x3e87083a	0.26373464
47	0xbdb204db	-0.08692332
48	0x3dfc0bee	0.12306963
49	0x3ebb5f97	0.36596367
50	0x3e35fa00	0.17771149
51	0xbe0d6b29	-0.1381041
52	0xbde39b13	-0.111135624
53	0xbdf7d42b	-0.12101015
54	0x3e9aa452	0.3020349
55	0x3e926501	0.28592685
56	0xbd841423	-0.06449153
57	0x3c27ba47	0.010237283
58	0xbdcca6ed	-0.09992776
59	0xbc3f85c9	-0.011689612
60	0x3c5cc459	0.013474547
61	0x3d553ce0	0.052060008
62	0x3df60517	0.120126896
63	0x3f106bfd	0.5641478
64	0xbd07890e	-0.03308969
65	0xbf0d0cf2	-0.5509788
66	0x3e97ed01	0.29673007
67	0x3e94f51b	0.2909325
68	0x3d44c3f4	0.048038438
69	0xbdff5517	-0.124674015
70	0xbe238b8c	-0.15971202
71	0xbee18f5f	-0.44054696
72	0xbdaa09a9	-0.08302624
73	0xbe208844	-0.15676981
74	0xbdf4cc4c	-0.11953029
75	0x3e84b243	0.25917253
76	0xbe352b96	-0.17692408
77	0xbdf61545	-0.120157756
78	0x3e2c32b9	0.16816224
79	0xbe5a2667	-0.21303712
80	0xbd55fd98	-0.0522438
81	0xbe507ecc	-0.20360869
82	0x3ea4a3bd	0.32156172
83	0x3e75974b	0.23983495
84	0x3db91366	0.09036903
85	0x3ca5f89f	0.020260153
86	0x3e21c43c	0.15797514
87	0xbd42f0d5	-0.047592957
88	0xbdc5d25b	-0.09659263
89	0x3e85b7c5	0.26116768
90	0x3d73b475	0.05949827
91	0xbec84eeb	-0.3912271
92	0xbd9d8db9	-0.07693047
93	0x3e70c44e	0.23512384
94	0x3e9a74a9	0.3016713
95	0x3d9d2c95	0.07674519
96	0x3d3541eb	0.044252317
97	0x3e4a60f5	0.19763549
98	0x3dbb9315	0.09158913
99	0xbea5f847	-0.32415983
100	0x3d1ebaa6	0.03875222
101	0x3e878945	0.26471916
102	0xbdb01155	-0.08597056
103	0xbcd60a83	-0.02612806
104	0xbdf00767	-0.11720162
105	0x3d260e10	0.040540755
106	0xbe25eccd	-0.16203614
107	0x3e616963	0.22012858
108	0xbe8930bf	-0.26795003
109	0x3da34d9f	0.079737894
110	0xbd44fa8f	-0.048090514
111	0x3e642e62	0.22283319
112	0x3d5a25de	0.05325877
113	0xbdd52bea	-0.104087666
114	0xbe12fb7a	-0.14353743
115	0x3eacd4c2	0.3375607
116	0xbe557c97	-0.20848309
117	0xbc85d238	-0.016335592
118	0x3cd5648f	0.026048927
119	0xbeb18c3b	-0.346773
120	0xbecfbf8e	-0.40575832
121	0xbe97b2dc	-0.29628646
122	0x3e18ec61	0.14933921
123	0xbec2a70d	-0.38018075
124	0xbec424d9	-0.38309363
125	0x3e140e9e	0.14458701
126	0x3dc93688	0.09824854
127	0xbde838b9	-0.11338944
128	0xbd064946	-0.032784723
129	0xbed279c9	-0.4110854
130	0xbe5c74a3	-0.21528868
131	0x3dec24ae	0.115304336
132	0x3d62bfef	0.055358823
133	0xbe089428	-0.13337767
134	0xbdadc465	-0.08484725
135	0x3dce34f2	0.10068692
136	0x3daf3fd2	0.08557095
137	0x3e8adf0f	0.27123305
138	0xbcd8880d	-0.026432062
139	0x3e8d71c3	0.27625856
140	0x3cce8844	0.02521146
141	0x3d2878d2	0.04113085
142	0xbe6da5b3	-0.2320774
143	0x3e1818fc	0.14853281
