Image/Notebook/Model/autoencoder2_model 3.pth (torch, 44676 bytes, 7 tensors)

weight f4 [16, 1, 3, 3]
0.037828345 0.109487854 0.35170773 -0.05932214 -0.12775375 -0.15966119 0.22680597 0.17358442
0.37124112 -0.13066776 -0.069127835 0.02716412 0.1957172 -0.13242343 -0.19838798 0.1614552
-0.086613834 0.073506854 0.113203354 0.02443057 -0.052210074 -0.039775148 -0.119291954 0.44944337
-0.11209648 0.17613389 0.34021178 0.15719062 0.28428847 0.27070972 0.2852099 -0.022094032
-0.206353 0.32863697 0.3598102 -0.15694143 0.19190916 -0.12314362 0.1917152 0.25097325
-0.31565472 -0.27944732 -0.109429054 0.048216086 -0.030278686 -0.21329409 0.3294119 0.1607839
0.123361155 0.17522341 -0.1975229 0.3213721 0.13733126 0.042243313 0.059940726 0.2570786
-0.17907059 0.42229202 0.30767125 0.11115634 -0.026377026 0.24157041 0.08929646 0.3878841
0.14158897 -0.13430668 -0.113102615 -0.082139015 -0.082623154 -0.27454865 0.053709373 0.12962471
-0.04587529 -0.25350037 0.33864018 0.36190215 -0.17610829 0.27885434 0.016191216 0.07406781
0.37224784 0.27660567 0.37226862 0.11240439 -0.11517433 -0.2452377 0.29088318 -0.14134389
0.17164865 0.15899618 -0.014983573 -0.16263527 -0.2908486 0.3325637 0.25795242 -0.23745371
0.081825435 -0.21403295 0.0016325597 -0.14243667 0.39183098 0.26201087 0.391089 0.3226106
-0.25570983 -0.073928095 0.32522255 0.23739879 0.33487815 0.0925196 0.12593919 0.04542184
0.22427334 -0.24011524 0.33901402 -0.26584208 0.09183443 0.20326425 -0.04931673 -0.0064532715
0.050409127 -0.22330953 0.021929462 -0.140857 0.19680123 -0.23439863 -0.17389596 0.10390267
0.028238364 -0.26697984 0.12599465 -0.2697915 -0.12209652 0.020914912 0.35609606 0.11306897
0.08279216 -0.06337122 0.38847843 0.37797514 0.38975093 -0.1235424 -0.22713944 0.09904795
00000000: e5f1 1a3d 2b3b e03d 0913 b43e c6fb 72bd
00000010: e1d1 02be 397e 23be d33f 683e 1dc0 313e
00000020: 5113 be3e c5cd 05be e592 8dbd 4a87 de3c
00000030: 176a 483e 029a 07be 3826 4bbe 8354 253e
00000040: 9862 b1bd c38a 963d 29d7 e73d 9e22 c83c
00000050: 3bda 55bd 44eb 22bd 574f f4bd 711d e63e
00000060: d792 e5bd 715c 343e 3d30 ae3e 94f6 203e
00000070: 428e 913e 779a 8a3e 0807 923e 8bfe b4bc
00000080: 334e 53be 1b43 a83e 0b39 b83e 41b5 20be
00000090: d683 443e b932 fcbd fd50 443e 917f 803e
000000a0: 7f9d a1be b813 8fbe 571c e0bd 3b7e 453d
000000b0: 020b f8bc c469 5abe ada8 a83e 89a4 243e
000000c0: c6a4 fc3d c46d 333e 7143 4abe e28a a43e
000000d0: 91a0 0c3e 5307 2d3d 6884 753d ce9f 833e
000000e0: 485e 37be a936 d83e 1687 9d3e efa5 e33d
000000f0: a214 d8bc 3c5e 773e 10e1 b63d bf98 c63e
00000100: b3fc 103e b187 09be 58a2 e7bd 8038 a8bd
00000110: 5436 a9bd a491 8cbe 5cfe 5b3d 57bc 043e
00000120: bae7 3bbd cdca 81be 3f62 ad3e 3d4b b93e
00000130: bb55 34be ffc5 8e3e 71a3 843c ddb0 973d
00000140: 4597 be3e 429f 8d3e fe99 be3e 4634 e63d
00000150: 85e0 ebbd 971f 7bbe a4ee 943e 74bc 10be
00000160: aac4 2f3e e5cf 223e a97d 75bc dc89 26be
00000170: 1cea 94be ca45 aa3e 5712 843e 1127 73be
00000180: 1894 a73d 742b 5bbe 9dfb d53a ebda 11be
00000190: 129e c83e 4a26 863e d13c c83e 372d a53e
000001a0: 66ec 82be 9d67 97bd 9283 a63e ab18 733e
000001b0: 2675 ab3e eb7a bd3d 34f6 003e 400c 3a3d
000001c0: e9a7 653e c5e0 75be 3f93 ad3e 741c 88be
000001d0: b113 bc3d 8124 503e 5700 4abd f775 d3bb
000001e0: cd79 4e3d 41ab 64be 6aa5 b33c d13c 10be
000001f0: 4386 493e 3206 70be c811 32be ecca d43d
00000200: 2454 e73c 95b1 88be be04 013e 1d22 8abe
00000210: be0d fabd c055 ab3c 3952 b63e b490 e73d
00000220: f08e a93d c5c8 81bd a5e6 c63e f585 c13e
00000230: 6f8d c73e cc03 fdbd 3e97 68be a7d9 ca3d

bias f4 [16]
0.014374258 0.1616997 -0.001864509 -0.11965583 0.17538914 -0.0141775645 -0.005061748 -0.026701167
0.37344348 0.0414856 0.24655367 0.12130823 0.37325478 0.31481647 0.19728743 0.21289322
00000000: 0282 6b3c 9b94 253e 8a62 f4ba 1e0e f5bd
00000010: 3699 333e 0449 68bc 05dd a5bb 68bc dabc
00000020: fc33 bf3e ceec 293d 9178 7c3e 7370 f83d
00000030: 401b bf3e a02f a13e b705 4a3e ae00 5a3e

weight f4 [32, 16, 3, 3]
0.04665787 0.09167267 -0.035377894 0.075470574 0.06903035 -0.013040577 0.12107241 0.014558551
0.1232839 0.10097039 -0.04913376 -0.12244981 0.039438035 0.051767725 0.031182753 -0.0705958
-0.076703824 -0.14122015 -0.34388918 0.18064345 0.16346842 0.044900887 0.33410314 0.022021022
0.33951393 0.18670748 -0.022797126 0.016251246 -0.0157523 -0.03696033 0.08462882 0.009409808
0.09393901 -0.01931346 0.10390414 0.13365729 0.108026184 -0.041762736 -0.0809186 -0.011920474
-0.12010742 -0.12257656 -0.13133357 -0.08168145 -0.116492726 0.04565142 0.013107366 0.028758887
0.044477005 0.11578786 0.1409366 -0.038647756 0.057697788 0.060337715 0.09657819 0.07728847
0.025477916 0.020657366 -0.015036348 0.04257387 0.038501695 0.060817953 0.08887617 0.06684294
0.59151685 -0.5761826 0.23192342 -0.4849288 -0.3402696 0.07987865 -0.4077643 -0.039698675
-0.007903072 -0.024906022 -0.0015329671 0.082429335 -0.01851841 -0.0070175556 0.07682076 -0.029542625
0.016403342 -0.035169102 0.10744559 0.08862867 0.037158065 0.017917797 0.068270124 0.033262473
0.013005235 0.115553945 0.0642013 -0.14010721 -0.02708792 0.055838145 -0.07777116 -0.017906606
-0.07576912 -0.093697645 -0.013300489 -0.059560325 0.017153943 0.096340396 -0.0060055195 0.008775964
0.008065201 0.040458515 -0.0010533398 0.09974429 -0.043877736 0.024022017 0.007846937 0.07091695
0.0045986087 -0.0011688404 -0.018349672 0.104023285 -0.012430408 -0.019621707 0.024241172 -0.12050203
-0.09680864 -0.09133458 -0.011563665 -0.1256041 -0.14882787 0.005039203 -0.06134568 0.037403837
-0.023747083 -0.027837722 0.047340386 -0.020018624 0.0050975354 -0.11918948 -0.14156364 0.04761169
0.033702902 0.10091429 0.0022453761 0.06812952 0.030194039 0.045634784 -0.024447447 0.085638806
0.007573155 -0.12519011 0.0046467828 -0.003165561 0.1060769 0.20545548 -0.03901115 0.14760806
-0.019555772 -0.20225191 0.027764728 0.08253635 0.4304771 0.33914718 0.17978318 0.14463861
-0.14146696 0.11023712 -0.13726074 -0.09734113 0.026335875 -0.1976357 0.104799956 0.13483642
0.40679508 0.3898691 0.124296166 0.15843071 0.027539898 -0.044975046 0.02545222 -0.24609189
-0.064193554 0.013095859 0.08019588 0.20173909 -0.40984994 0.14055061 0.14155273 0.42910522
0.40541136 0.115983576 -0.120605096 -0.36801964 -0.108166344 0.18190609 0.07712598 -0.029031832
0.09661216 -0.21689194 -0.026244903 0.07597513 0.23744836 0.3099449 0.10163159 0.06146313
-0.05204686 -0.21014078 -0.24895506 -0.16785671 0.08285007 0.22316432 0.26473293 -0.56933296
-0.15585355 0.03866971 -0.055794172 0.69029725 -0.09139334 0.10436206 -0.5346872 -0.23089865
0.06995366 0.058606315 0.04463131 -0.11179014 -0.12425423 -0.11921479 0.030893117 0.2544787
-0.007921751 0.080929846 0.0882149 0.06891643 -0.06824153 -0.014796236 0.0018683858 0.02084484
0.0026642694 0.02881904 -0.030841008 0.22568093 0.0067762313 0.088228084 -0.25337735 -0.19133326
0.17188746 -0.043152858 0.4473763 0.08882783 0.042213257 0.07702125 -0.018271722 -0.14406295
-0.19651476 0.026272453 0.1670513 0.2274996 0.09032243 0.19251007 -0.015767064 0.09778589
00000000: 531c 3f3d e1be bb3d 69e8 10bd 5190 9a3d
00000010: c95f 8d3d 25a8 55bc d0f4 f73d fd86 6e3c
00000020: 457c fc3d 90c9 ce3d 7b40 49bd f7c6 fabd
00000030: c789 213d 650a 543d f972 ff3c 8894 90bd
00000040: e516 9dbd 049c 10be 3e12 b0be 99fa 383e
00000050: 4464 273e fee9 373d 910f ab3e 6e65 b43c
00000060: c5d4 ad3e 3f30 3f3e 0ac1 babc 5521 853c
00000070: f80a 81bc b763 17bd e051 ad3d 982b 1a3c
00000080: 1863 c03d 4337 9ebc b2cb d43d 75dd 083e
00000090: d53c dd3d 670f 2bbd a7b8 a5bd 174e 43bc
000000a0: e1fa f5bd 6b09 fbbd 4f7c 06be 9b48 a7bd
000000b0: bd93 eebd fcfc 3a3d 47c0 563c c297 eb3c
000000c0: 852d 363d 2f22 ed3d af51 103e 1c4d 1ebd
000000d0: 8454 6c3d ae24 773d c9ca c53d 6b49 9e3d
000000e0: 10b7 d03c a339 a93c 045b 76bc f061 2e3d
000000f0: f4b3 1d3d 3f1c 793d b604 b63d f4e4 883d
00000100: a66d 173f b480 13bf 557d 6d3e 9648 f8be
00000110: d137 aebe 6b97 a33d 7bc6 d0be 149b 22bd
00000120: e37b 01bc b707 ccbc d7ed c8ba b6d0 a83d
00000130: ecb3 97bc 86f3 e5bb 3454 9d3d 6003 f2bc
00000140: 4d60 863c 7a0d 10bd 6f0c dc3d f382 b53d
00000150: 0e33 183d 58c8 923c 35d1 8b3d 3b3e 083d
00000160: e913 553c 8ca7 ec3d f97b 833d 4478 0fbe
00000170: 7ce7 ddbc 8ab6 643d 7c46 9fbd e0b0 92bc
00000180: d72c 9bbd 8de4 bfbd 4bea 59bc 87f5 73bd
00000190: 6d86 8c3c 1d4e c53d f3c9 c4bb 10c9 0f3c
000001a0: e823 043c d4b7 253d 3810 8aba bc46 cc3d
000001b0: 24b9 33bd d2c9 c43c 7090 003c e83c 913d
000001c0: edaf 963b c733 99ba 0d52 96bc 290a d53d
000001d0: e9a8 4bbc b4bd a0bc 6c95 c63c c5c9 f6bd
000001e0: 9c43 c6bd a00d bbbd 8775 3dbc 5c9e 00be
000001f0: 5566 18be e61f a53b 9c45 7bbd c434 193d
00000200: 3e89 c2bc ef0b e4bc fee7 413d 19fe a3bc
00000210: 3a09 a73b 9d19 f4bd 0ff6 10be 7a04 433d
00000220: 0e0c 0a3d 27ac ce3d 2927 133b 7d87 8b3d
00000230: 7d59 f73c 8aeb 3a3d 0346 c8bc 6663 af3d
00000240: 3b28 f83b d631 00be 0a44 983b 4d75 4fbb
00000250: d93e d93d ec62 523e 28ca 1fbd 9126 173e
00000260: 6d33 a0bc 201b 4fbe db72 e33c d108 a93d
00000270: 7f67 dc3e b3a4 ad3e 1519 383e 251c 143e
00000280: b7dc 10be 00c4 e13d 148e 0cbe c95a c7bd
00000290: 55be d73c 0361 4abe 5ca1 d63d 8f12 0a3e
000002a0: 7247 d03e ec9c c73e fd8e fe3d a93b 223e
000002b0: 5a9b e13c c137 38bd 2d81 d03c 83ff 7bbe
000002c0: e977 83bd 0490 563c bd3d a43d b194 4e3e
000002d0: dad7 d1be 80ec 0f3e 33f3 103e aeb3 db3e
000002e0: 1492 cf3e cc88 ed3d ceff f6bd 126d bcbe
000002f0: 5186 ddbd 9745 3a3e 3af4 9d3d 2ad4 edbc
00000300: 99dc c53d ec18 5ebe 8dff d6bc d998 9b3d
00000310: aa25 733e 19b1 9e3e 3924 d03d c3c0 7b3d
00000320: 172f 55bd 252f 57be 13ee 7ebe a1e2 2bbe
00000330: 4cad a93d 3085 643e 138b 873e cebf 11bf
00000340: 1398 1fbe 2164 1e3d 6e88 64bd 52b7 303f
00000350: 6e2c bbbd c7bb d53d 43e1 08bf b270 6cbe
00000360: dd43 8f3d 2d0d 703d 52cf 363d 3bf2 e4bd
00000370: 0079 febd e226 f4bd 9013 fd3c 084b 823e
00000380: 3bca 01bc 8cbe a53d 03aa b43d 0f24 8d3d
00000390: 37c2 8bbd e96b 72bc a0e4 f43a ccc2 aa3c
000003a0: 069b 2e3b e815 ec3c 48a6 fcbc e718 673e
000003b0: 260b de3b edb0 b43d adba 81be deec 43be
000003c0: 4403 303e 0dc1 30bd 820e e53e 5eeb b53d
000003d0: cfe7 2c3d 51bd 9d3d 94ae 95bc 3d85 13be
000003e0: 2a3b 49be 5439 d73c 7f0f 2b3e a8f5 683e
000003f0: f7fa b83d 5c21 453e ee29 81bc f843 c83d

bias f4 [32]
0.028693683 0.06939731 -0.0068606953 0.036682207 0.01183357 0.07770747 0.03596106 0.026420046
0.115417466 -0.01046861 -0.015640695 0.06872504 -0.00048471353 -0.024509838 -0.0011561901 -0.08111302
0.022958955 -0.010718151 0.025529679 0.030592486 -0.0711956 0.037854414 -0.034002934 0.104146555
0.14825445 0.18533099 0.049157154 0.16901346 0.042435467 -0.0042876448 0.05158506 0.024708558
00000000: 040f eb3c 2d20 8e3d afcf e0bb 1540 163d
00000010: 97e1 413c 1825 9f3d e84b 133d da6e d83c
00000020: fe5f ec3d 8884 2bbc ea20 80bc b7bf 8c3d
00000030: 2621 feb9 dbc8 c8bc 4d8b 97ba 951e a6bd
00000040: 6b14 bc3c 2f9b 2fbc 9e23 d13c 189d fa3c
00000050: 00cf 91bd 3b0d 1b3d a946 0bbd ca4a d53d
00000060: 04d0 173e 68c7 3d3e 0359 493d dd11 2d3e
00000070: d0d0 2d3d 5f7f 8cbb db4a 533d 9a69 ca3c

weight f4 [32, 16, 3, 3]
0.097760774 0.10439262 0.03708548 0.057472534 0.02880361 0.064998716 -0.00078763335 -0.064199634
-0.009348939 0.09482411 0.06266788 -0.00049544807 0.08706696 0.025326833 0.076820016 0.02595224
-0.008703848 0.07900345 -0.04923418 -0.014753342 -0.0312602 -0.066622 -0.025954744 -0.08461801
-0.07772988 0.04277092 0.022023989 0.026969066 -0.08909824 0.049267076 -0.008560698 0.06994035
-0.04294236 0.057410408 -0.07321217 0.06969273 -0.015373014 -0.026787551 -0.06924967 0.08515273
-0.08593463 -0.052362975 0.019364078 -0.07666155 0.024457589 -0.04601882 -0.1906596 -0.067815885
-0.0124995345 0.044715203 -0.010542622 -0.012931367 0.027640894 -0.0054603424 -0.05394772 -0.030875077
0.038903676 -0.062276702 0.12450822 -0.062956005 0.006828245 0.09868862 -0.075809404 -0.048665285
-0.03228717 0.11187493 0.0528666 -0.074956305 0.059633125 0.083232105 0.11094329 0.09653775
0.104529284 -0.016278882 -0.08925992 -0.012971579 0.11773826 -0.07799644 0.039779574 -0.012794149
-0.080827944 -0.07220807 0.03988196 -0.069153324 0.07399449 0.08828301 0.0543068 0.016555507
0.077138096 0.04689147 0.008517926 0.010956791 0.045356624 0.08494509 -0.23722629 0.008057004
-0.02744691 -0.061917692 0.01795604 -0.0090766195 -0.037623394 -0.016049683 -0.013458439 0.099196255
0.0044801207 0.049539693 0.042516578 -0.0609891 0.06434485 0.04597832 0.101080135 0.031328756
-0.020423653 0.059355825 -0.011188775 0.039047908 0.01370854 -0.03302974 0.0613743 0.03881676
0.040843572 0.0321638 0.015678493 0.049353067 0.027713865 -0.014425192 0.016205199 -0.012559511
-0.023064831 0.014507209 0.07084402 0.022133667 0.054306313 -0.09246238 0.04310595 -0.12517074
0.078500256 -0.11383071 0.09000202 0.03456515 0.09678962 -0.15567213 0.051790733 -0.121908106
-0.08105587 0.057621542 0.1642052 0.10893217 0.14191805 0.059949458 -0.024333954 -0.27207103
-0.13256893 0.011310204 0.13741334 0.024526827 -0.07705102 -0.13851891 -0.12794451 -0.013072186
0.18995014 0.11503226 -0.16451187 0.009224437 0.14745797 -0.0170207 0.36553365 -0.03191663
-0.10719449 -0.08001476 -0.2873561 0.22267412 0.016103234 -0.048643563 0.04773266 -0.23426148
0.051751554 -0.09841624 -0.008300671 0.07060859 -0.12996992 -0.13069898 -0.02319132 0.16880174
0.04409767 0.18786682 0.19667724 -0.040158235 -0.15050012 0.03883916 0.23928426 -0.14091435
-0.011022185 -0.35111845 -0.057103276 0.1682945 0.05623591 0.4238699 0.046102352 0.031541806
0.03111852 -0.012233309 -0.31635588 -0.050498378 -0.0025239587 0.18938741 0.024573892 0.02962175
-0.039683066 -0.036486916 -0.06303641 -0.07710854 0.007841155 0.14463918 0.24872993 0.21801284
-0.18749753 0.08005215 0.16861525 0.21791203 0.25786185 0.112784125 0.02244074 -0.25082532
-0.12727205 -0.0032986798 -0.17471087 -0.085055515 0.015398995 -0.078815095 -0.09732285 0.088439025
0.29731423 -0.075854465 -0.1669849 -0.0009961759 -0.0071383887 0.14960241 0.054140434 0.03858773
-0.07343175 -0.12463404 -0.19866015 -0.0149212275 0.16263545 -0.084460735 -0.020708386 -0.032337025
-0.051007483 0.001791312 0.19314674 -0.027271273 0.02416037 0.049687427 0.047255855 0.04961524
00000000: cd36 c83d cccb d53d f2e6 173d 5268 6b3d
00000010: 8cf5 eb3c 0c1e 853d 2e79 4eba 197b 83bd
00000020: 4b2c 19bc 2533 c23d 0458 803d f5e0 01ba
00000030: 2a50 b23d 387a cf3c d053 9d3d cb99 d43c
00000040: 969a 0ebc 90cc a13d c8a9 49bd 00b8 71bc
00000050: b20a 00bd 1d71 88bd 0b9f d4bc 354c adbd
00000060: d830 9fbd 8f30 2f3d a76b b43c 3bee dc3c
00000070: 2379 b6bd 46cc 493d 2b42 0cbc e33c 8f3d
00000080: 54e4 2fbd 2d27 6b3d 43f0 95bd 10bb 8e3d
00000090: 18df 7bbc 9171 dbbc c5d2 8dbd 8e64 ae3d
000000a0: 7ffe afbd 8f7a 56bd 6aa1 9e3c bb00 9dbd
000000b0: 485b c83c 3b7e 3cbd 453c 43be 0ee3 8abd
000000c0: d9ca 4cbc 4a27 373d f6ba 2cbc 16de 53bc
000000d0: 286f e23c acec b2bb 49f8 5cbd bbed fcbc
000000e0: 7659 1f3d db15 7fbd 2afe fe3d 14ef 80bd
000000f0: 78bf df3b 421d ca3d f641 9bbd 4055 47bd
00000100: 8d3f 04bd af1e e53d a68a 583d b182 99bd
00000110: dd41 743d 9875 aa3d 3c36 e33d 95b5 c53d
00000120: 7313 d63d 4a5b 85bc e8cd b6bd bf86 54bc
00000130: c220 f13d 99bc 9fbd e8ef 223d 8d9e 51bc
00000140: 1f89 a5bd d3e1 93bd 445b 233d 42a0 8dbd
00000150: 6c8a 973d b9cd b43d cf70 5e3d 6a9f 873c
00000160: 94fa 9d3d 4511 403d c58e 0b3c 1d84 333c
00000170: dec7 393d b1f7 ad3d 73eb 72be 8601 043c
00000180: 58d8 e0bc 689d 7dbd 8c18 933c 1ab6 14bc
00000190: fd1a 1abd a07a 83bc c980 5cbc 6827 cb3d
000001a0: facd 923b 22ea 4a3d dd25 2e3d b5cf 79bd
000001b0: 3cc7 833d c353 3c3d 1a03 cf3d 9552 003d
000001c0: 814f a7bc 181f 733d 2051 37bc b3f0 1f3d
000001d0: c999 603c 314a 07bd 9e63 7b3d 53fe 1e3d
000001e0: 974b 273d 30be 033d 2f70 803c 7126 4a3d
000001f0: 3008 e33c a457 6cbc c4c0 843c 68c6 4dbc
00000200: 75f2 bcbc a5af 6d3c ab16 913d aa51 b53c
00000210: 4c70 5e3d eb5c bdbd dd8f 303d c22c 00be
00000220: bec4 a03d 1320 e9bd fb52 b83d 3094 0d3d
00000230: a339 c63d 8468 1fbe 8522 543d f5aa f9bd
00000240: 9f00 a6bd 9104 6c3d 6825 283e d417 df3d
00000250: f752 113e 908d 753d 0058 c7bc e54c 8bbe
00000260: 26c0 07be 6f4e 393c 15b6 0c3e 7cec c83c
00000270: edcc 9dbd e7d7 0dbe e303 03be b92c 56bc
00000280: 4a82 423e 0996 eb3d cd75 28be 1822 173c
00000290: 39ff 163e ff6e 8bbc 3a27 bb3e 03bb 02bd
000002a0: c988 dbbd c7de a3bd 5720 93be af04 643e
000002b0: eeea 833c 793e 47bd 5283 433d 3ee2 6fbe
000002c0: 70f9 533d 748e c9bd 8aff 07bc 3d9b 903d
000002d0: d616 05be f4d5 05be b9fb bdbc 5dda 2c3e
000002e0: c29f 343d 2960 403e c265 493e f67c 24bd
000002f0: b41c 1abe d015 1f3d ef06 753e da4b 10be
00000300: 6596 34bc ccc5 b3be 20e5 69bd 6555 2c3e
00000310: a057 663d 7a05 d93e d2d5 3c3d fb31 013d
00000320: 44ec fe3c 386e 48bc 66f9 a1be 63d7 4ebd
00000330: 0069 25bb c6ee 413e 304f c93c 50a9 f23c
00000340: b68a 22bd 4e73 15bd 3c19 81bd 15eb 9dbd
00000350: 3078 003c 4b1c 143e 0fb3 7e3e c23e 5f3e
00000360: 5aff 3fbe 62f2 a33d 7aa9 2c3e 5524 5f3e
00000370: 7806 843e 5dfb e63d a5d5 b73c 2d6c 80be
00000380: 9b53 02be aa2e 58bb 68e7 32be 9631 aebd
00000390: 114c 7c3c cf69 a1bd 3451 c7bd 851f b53d
000003a0: 9239 983e 9659 9bbd 17fe 2abe 1e92 82ba
000003b0: 25e9 e9bb 6031 193e 5cc2 5d3d 2b0e 1e3d
000003c0: 6363 96bd 2240 ffbd 916d 4bbe 2a78 74bc
000003d0: e889 263e c0f9 acbd a2a4 a9bc d473 04bd
000003e0: 39ed 50bd 75ca ea3a 42c8 453e 0168 dfbc
000003f0: f8eb c53c 0b85 4b3d 5b8f 413d 5a39 4b3d

bias f4 [16]
0.12490668 0.080569796 0.037662495 -0.048207395 0.055147763 0.07117085 -0.06076294 0.052004583
0.10275902 -0.057859134 -0.004135274 0.09643957 -0.027001666 -0.08898144 -0.06643515 0.04452459
00000000: 13cf ff3d c701 a53d fd43 1a3d 1e75 45bd
00000010: 9fe2 613d 06c2 913d 90e2 78bd c202 553d
00000020: 5273 d23d b3fd 6cbd 3181 87bb 1c82 c53d
00000030: 9932 ddbc e73b b6bd 270f 88bd 6b5f 363d

weight f4 [16, 1, 3, 3]
-0.07859438 -0.11151837 -0.22432409 -0.06226746 -0.26279655 0.022650186 -0.3964871 -0.44198677
0.06415629 0.2803112 0.2815614 -0.12812342 0.062175475 0.31707165 -0.11784861 -0.1984722
0.26339304 0.082182445 0.11158004 -0.25283992 0.24682257 -0.1992667 -0.3850706 -0.22035667
-0.16957077 -0.4177153 0.14080824 -0.00092387985 0.2294784 0.3484483 -0.036263827 0.026634296
0.33492082 0.3076518 -0.16338284 0.20812884 0.013331254 -0.12181387 -0.32821012 -0.17838965
-0.4173627 -0.1311144 -0.07593307 -0.07282568 0.13523771 -0.022008983 -0.16788818 -0.102049366
0.2922403 0.047635876 -0.12922966 0.31889474 0.25756678 -0.1328425 -0.027609846 -0.028048923
0.2736315 -0.08140601 0.2995053 0.35239244 0.1947744 -0.02829315 0.05860587 0.20996605
-0.14815538 0.12972237 0.23813018 0.26424772 0.28690916 0.09846205 0.26163164 0.11840724
-0.08794169 -0.18577974 0.050285827 -0.12953787 -0.43192434 -0.32844073 -0.22197388 -0.11824236
-0.3309835 0.17273569 -0.013652252 -0.1510123 0.26558128 -0.09581054 0.15292847 0.32693052
0.32205847 -0.21721376 -0.3041013 -0.2456385 -0.30828506 -0.26731214 -0.32077232 0.0023848852
-0.06682571 -0.17648585 -0.4366516 0.262396 0.16389576 -0.13844554 0.07549957 0.31230423
-0.009212233 -0.25397828 0.24231979 0.13464727 0.019020129 0.29119042 0.20499425 0.25718665
0.0722576 0.09894783 0.18925019 0.030638464 -0.16712697 0.3603931 0.089493304 0.24456497
-0.07871486 0.22292624 -0.09791179 0.26415613 -0.07915325 -0.15343514 -0.22288315 0.013814261
0.049245473 -0.281631 0.14533716 -0.08958769 -0.29547 0.23753081 -0.25280482 0.030825889
-0.078075886 -0.19456458 -0.34112692 -0.25414434 -0.3849782 0.21242149 0.064036556 -0.17540431
00000000: 17f6 a0bd be63 e4bd 37b5 65be 2a0c 7fbd
00000010: 458d 86be e28c b93c 5b00 cbbe 174c e2be
00000020: 5f64 833d f384 8f3e d128 903e c932 03be
00000030: b6ab 7e3d 3757 a23e 9d5a f1bd 4c3c 4bbe
00000040: 74db 863e 454f a83d 1384 e43d 3c74 81be
00000050: 0ebf 7c3e 920c 4cbe f927 c5be 2ea5 61be
00000060: f6a3 2dbe c8de d5be 0930 103e 8730 72ba
00000070: 63fc 6a3e d167 b23e 6189 14bd 2b30 da3c
00000080: be7a ab3e 8984 9d3e d54d 27be ba1f 553e
00000090: 556b 5a3c 8d79 f9bd 280b a8be c7ab 36be
000000a0: 90b0 d5be da42 06be cc82 9bbd a125 95bd
000000b0: c17b 0a3e 2f4c b4bc e1ea 2bbe 42ff d0bd
000000c0: 85a0 953e d61d 433d c854 04be 2c46 a33e
000000d0: cbdf 833e dd07 08be 0b2e e2bc dbc6 e5bc
000000e0: 6e19 8c3e 32b8 a6bd c258 993e c86c b43e
000000f0: f172 473e 09c7 e7bc b50c 703d 5701 573e
00000100: 0bb6 17be f1d5 043e 66d8 733e 7a4b 873e
00000110: c2e5 923e 79a6 c93d 95f4 853e 7f7f f23d
00000120: c61a b4bd 0b3d 3ebe 83f8 4d3d 93a5 04be
00000130: 3025 ddbe 6229 a8be 1f4d 63be 0d29 f2bd
00000140: ab76 a9be a0e1 303e b2ad 5fbc f8a2 1abe
00000150: 45fa 873e 5138 c4bd 4899 1c3e 7063 a73e
00000160: d9e4 a43e 496d 5ebe 2ab3 9bbe a988 7bbe
00000170: 8ad7 9dbe 23dd 88be 453c a4be bc4b 1c3b
00000180: ebdb 88bd b5b8 34be cc90 dfbe c558 863e
00000190: 4ad4 273e abc4 0dbe 859f 9a3d 57e6 9f3e
000001a0: e8ee 16bc 7109 82be ae22 783e f9e0 093e
000001b0: 1ad0 9b3c e916 953e 03ea 513e f8ad 833e
000001c0: cbfb 933d 29a5 ca3d cdca 413e 84fd fa3c
000001d0: 5523 2bbe 7285 b83e 4448 b73d 3d6f 7a3e
000001e0: 4235 a1bd c746 643e fa85 c8bd 793f 873e
000001f0: 191b a2bd 1a1e 1dbe 7b3b 64be 3655 623c
00000200: 9fb5 493d f031 90be 44d3 143e c079 b7bd
00000210: d847 97be 473b 733e a26f 81be 9386 fc3c
00000220: 40e6 9fbd f03b 47be 30a8 aebe 351f 82be
00000230: dd1b c5be 0585 593e 9925 833d 309d 33be
